chapter03(DS_book)/multi_layer_perceptron/multi_layer_perceptron_checkpoint-9.pt (torch, 6086 bytes, 9 tensors)

layer1.0.weight f4 [2, 2]
0	0xc0aa394c	-5.3194942
1	0xc0ab4722	-5.352433
2	0xc0f4a9f8	-7.645748
3	0xc0fe2dae	-7.943076

layer1.0.bias f4 [2]
0	0x40f78cbb	7.735929
1	0x404c773d	3.1947777

layer2.0.weight f4 [1, 2]
0	0x40e8a65c	7.2703075
1	0xc10907d2	-8.564409

exp_avg f4 [2, 2]
0	0x3aabb667	0.0013100625
1	0x3ab5d0d9	0.0013871446
2	0x3a3e6947	0.00072636124
3	0x3a07b446	0.0005176704

exp_avg_sq f4 [2, 2]
0	0x38563d4e	5.107867e-05
1	0x384db6c7	4.9046033e-05
2	0x37ee7c3e	2.8429666e-05
3	0x3781761a	1.5432994e-05

exp_avg f4 [2]
0	0xbb2f2f82	-0.0026731198
1	0xb9961cc5	-0.00028631664

exp_avg_sq f4 [2]
0	0x38ec969e	0.000112814116
1	0x377fb909	1.5242266e-05

exp_avg f4 [1, 2]
0	0xbbff9ae5	-0.0078004473
1	0x3b8f8f84	0.004381122

exp_avg_sq f4 [1, 2]
0	0x39f24400	0.000462085
1	0x39484943	0.00019100778
