chapter03(DS_book)/multi_layer_perceptron/multi_layer_perceptron_checkpoint-10.pt (torch, 6169 bytes, 9 tensors)

layer1.0.weight f4 [2, 2]
000000 1c cc b0 c0 40 d5 b1 c0 aa d0 f9 c0 da a5 01 c1
       -5.5249157 -5.5572815 -7.8067217 -8.102991

layer1.0.bias f4 [2]
000000 e2 c5 00 41 e8 b5 52 40
       8.048311 3.2923527

layer2.0.weight f4 [1, 2]
000000 e3 a4 f6 40 44 5a 0f c1
       7.707628 -8.9595375

exp_avg f4 [2, 2]
000000 21 8c 6a 3a 2d 81 4d 3a 38 84 14 3a ee b2 df 39
       0.00089472724 0.0007839378 0.0005665454 0.00042667188

exp_avg_sq f4 [2, 2]
000000 32 2a 3a 38 98 3c 33 38 38 ba cd 37 df 5c 5f 37
       4.4385153e-05 4.2733358e-05 2.452462e-05 1.3313459e-05

exp_avg f4 [2]
000000 f8 ff 18 bb 1e 4a 3f b9
       -0.0023345929 -0.0001824279

exp_avg_sq f4 [2]
000000 76 5f ce 38 83 b3 5c 37
       9.8406264e-05 1.3154818e-05

exp_avg f4 [1, 2]
000000 21 2a d9 bb 3f aa 67 3b
       -0.0066273366 0.0035349277

exp_avg_sq f4 [1, 2]
000000 f3 7d d4 39 30 d1 2e 39
       0.0004052963 0.00016671862
