chapter03(DS_book)/multi_layer_perceptron/multi_layer_perceptron_checkpoint-4.pt (torch, 6086 bytes, 9 tensors)

layer1.0.weight f4 [2, 2]
000000 58 52 3f c0 2e 5a 42 c0 f6 61 bf c0 8b 29 c9 c0
       -2.9894009 -3.0367541 -5.980708 -6.286321

layer1.0.bias f4 [2]
000000 98 bf 84 40 21 27 0a 40
       4.148388 2.1586382

layer2.0.weight f4 [1, 2]
000000 69 36 52 40 2b 01 ac c0
       3.284571 -5.3751426

exp_avg f4 [2, 2]
000000 2d 25 0d 3c 03 b0 07 3c 31 f4 a8 3b cd bf 78 3b
       0.00861482 0.008281711 0.005156063 0.003795612

exp_avg_sq f4 [2, 2]
000000 64 c5 8c 38 dc b0 8f 38 44 18 69 38 f4 74 fd 37
       6.712487e-05 6.851714e-05 5.5574128e-05 3.021441e-05

exp_avg f4 [2]
000000 0f 68 90 bc 3d 56 1c bb
       -0.017627744 -0.0023855113

exp_avg_sq f4 [2]
000000 5d bf 10 39 9a 20 fb 37
       0.00013804199 2.9936713e-05

exp_avg f4 [1, 2]
000000 d8 31 07 bd 2b e3 96 3c
       -0.03300652 0.018418869

exp_avg_sq f4 [1, 2]
000000 df f4 22 3a ee 2c a3 39
       0.0006216298 0.00031123258
