chapter03(DS_book)/multi_layer_perceptron/multi_layer_perceptron_checkpoint-6.pt (torch, 6086 bytes, 9 tensors)

layer1.0.weight f4 [2, 2]
00000000: 760e 8cc0 1ef2 8cc0 1efc ddc0 1cab e7c0
-4.3767653 -4.4045553 -6.937026 -7.2396374

layer1.0.bias f4 [2]
00000000: cfde c840 075d 3040
6.2771983 2.755678

layer2.0.weight f4 [1, 2]
00000000: c14a ae40 4d8f e0c0
5.446625 -7.017493

exp_avg f4 [2, 2]
00000000: a35f 8e3b c39e 893b 17f3 f13a d4d0 b23a
0.004344897 0.004199834 0.0018459287 0.0013642558

exp_avg_sq f4 [2, 2]
00000000: 424b 9a38 c8eb 9338 8ac3 3738 b691 c737
7.35731e-05 7.053424e-05 4.381271e-05 2.37905e-05

exp_avg f4 [2]
00000000: 4860 d8bb f6e8 83ba
-0.0066032745 -0.0010063935

exp_avg_sq f4 [2]
00000000: cca2 2639 b6f4 c437
0.0001589164 2.3478973e-05

exp_avg f4 [1, 2]
00000000: bf5a 8bbc b5f0 1b3c
-0.017011045 0.009517838

exp_avg_sq f4 [1, 2]
00000000: 56fd 273a 3890 9039
0.00064082944 0.00027573272
