chapter03(DS_book)/multi_layer_perceptron/multi_layer_perceptron_checkpoint-3.pt (torch, 6086 bytes, 9 tensors)

layer1.0.weight f4 [2, 2]
-1.7993678 -1.8926079 -5.09833 -5.4045506
00000000: af51 e6bf fa40 f2bf 8525 a3c0 14f2 acc0

layer1.0.bias f4 [2]
2.3866053 1.6390582
00000000: 24be 1840 a9cc d13f

layer2.0.weight f4 [1, 2]
1.9134165 -4.1959925
00000000: d5ea f43f 9245 86c0

exp_avg f4 [2, 2]
0.008020988 0.008313019 0.00945367 0.00684634
00000000: 766a 033c 5433 083c 91e3 1a3c 4357 e03b

exp_avg_sq f4 [2, 2]
4.1357987e-05 4.1394844e-05 5.682393e-05 3.0875235e-05
00000000: cd77 2d38 609f 2d38 3b56 6e38 0880 0138

exp_avg f4 [2]
-0.018449757 -0.0031004222
00000000: f223 97bc 7430 4bbb

exp_avg_sq f4 [2]
7.209711e-05 3.0879168e-05
00000000: d732 9738 4184 0138

exp_avg f4 [1, 2]
-0.032500483 0.02425443
00000000: 3a1f 05bd 3ab1 c63c

exp_avg_sq f4 [1, 2]
0.00050142617 0.00028591373
00000000: 2472 033a b1e6 9539
