chapter03(DS_book)/multi_layer_perceptron/multi_layer_perceptron_checkpoint-8.pt (torch, 6086 bytes, 9 tensors)

layer1.0.weight f4 [2, 2]
0	0xc0a2687e	-5.0752554
1	0xc0a3583c	-5.104521
2	0xc0ee951c	-7.455702
3	0xc0f82ae9	-7.755238

layer1.0.bias f4 [2]
0	0x40eb92f1	7.361687
1	0x40452f3b	3.0810077

layer2.0.weight f4 [1, 2]
0	0x40d8989b	6.7686286
1	0xc101efb2	-8.121019

exp_avg f4 [2, 2]
0	0x3adbb0fd	0.0016761121
1	0x3aecd380	0.0018068403
2	0x3a7a3374	0.000954441
3	0x3a31d34e	0.0006783501

exp_avg_sq f4 [2, 2]
0	0x387552f8	5.8489823e-05
1	0x386c10ce	5.6282435e-05
2	0x380a1410	3.292045e-05
3	0x3795ed60	1.787272e-05

exp_avg f4 [2]
0	0xbb6b72f7	-0.0035926679
1	0xb9ecede2	-0.00045190664

exp_avg_sq f4 [2]
0	0x39071acf	0.0001288459
1	0x379414c7	1.765265e-05

exp_avg f4 [1, 2]
0	0xbc1f798b	-0.009733568
1	0x3bb81064	0.0056171883

exp_avg_sq f4 [1, 2]
0	0x3a094b59	0.0005237363
1	0x396474e2	0.00021787317
