chapter03(DS_book)/multi_layer_perceptron/multi_layer_perceptron_checkpoint-1.pt (torch, 6086 bytes, 9 tensors)

layer1.0.weight f4 [2, 2]
00000000: ea72 ab3d c65f e43d 0f25 cbbf e7b2 efbf
0.083715275 0.1115108 -1.5870684 -1.8726472

layer1.0.bias f4 [2]
00000000: d051 253f 5132 77be
0.6457796 -0.24140288

layer2.0.weight f4 [1, 2]
00000000: dda4 233f 293b 7cbf
0.63923436 -0.9852777

exp_avg f4 [2, 2]
00000000: 2813 73ba 96d3 b9b8 3210 353c dab9 023c
-0.0009272569 -8.8608984e-05 0.011051225 0.007978881

exp_avg_sq f4 [2, 2]
00000000: cb97 da36 b19f b136 9031 1737 c5ae 9736
6.5145773e-06 5.2936016e-06 9.011841e-06 4.5204965e-06

exp_avg f4 [2]
00000000: 9a63 9cba 3dcc 42bb
-0.0011931539 -0.0029723786

exp_avg_sq f4 [2]
00000000: ac22 4837 cad7 cc36
1.1929002e-05 6.104795e-06

exp_avg f4 [1, 2]
00000000: 8b63 abbb e14a a53c
-0.0052303723 0.020177307

exp_avg_sq f4 [1, 2]
00000000: 519f 8939 b949 8d38
0.00026249376 6.737136e-05
