chapter03(DS_book)/multi_layer_perceptron/multi_layer_perceptron_checkpoint-2.pt (torch, 6086 bytes, 9 tensors)

layer1.0.weight f4 [2, 2]
000000 e5 d4 07 bf fd b0 1d bf da 27 6c c0 22 32 7f c0
       -0.53059226 -0.6159819 -3.6899323 -3.9874349

layer1.0.bias f4 [2]
000000 6c 5c 6f 3f 94 a6 61 3f
       0.935004 0.88144803

layer2.0.weight f4 [1, 2]
000000 d6 5a 70 3f 5e bf 2d c0
       0.93888605 -2.7148051

exp_avg f4 [2, 2]
000000 ba a1 22 3c d9 00 21 3c 34 ae 73 3c a6 b7 35 3c
       0.009926254 0.009826862 0.014873076 0.0110911485

exp_avg_sq f4 [2, 2]
000000 4e f0 7b 37 8f 58 78 37 d5 db 31 38 3c 41 c0 37
       1.5016716e-05 1.4802571e-05 4.2404823e-05 2.291856e-05

exp_avg f4 [2]
000000 bb 25 8c ba ae ca d1 bb
       -0.0010692397 -0.006402335

exp_avg_sq f4 [2]
000000 0a 4c b5 37 8d 8e c8 37
       2.161229e-05 2.3908238e-05

exp_avg f4 [1, 2]
000000 94 82 4d bc 04 46 fb 3c
       -0.012543339 0.030673034

exp_avg_sq f4 [1, 2]
000000 20 7d ce 39 20 a9 52 39
       0.00039384607 0.00020090165
