chapter03(DS_book)/multi_layer_perceptron/multi_layer_perceptron_checkpoint-5.pt (torch, 6086 bytes, 9 tensors)

layer1.0.weight f4 [2, 2]
00000000: 7c5a 75c0 a914 77c0 4486 d1c0 7740 dbc0
-3.8336477 -3.860636 -6.54764 -6.8516192

layer1.0.bias f4 [2]
00000000: 6431 ad40 5b77 2040
5.412279 2.5072849

layer2.0.weight f4 [1, 2]
00000000: 754c 9040 1b4e c9c0
4.509333 -6.2907844

exp_avg f4 [2, 2]
00000000: a1fa 933b 5cf8 a03b 805a 473b e55a 0e3b
0.0045159613 0.0049124192 0.0030418932 0.0021721658

exp_avg_sq f4 [2, 2]
00000000: f79e a438 1f32 9e38 73b9 5138 eec8 e337
7.849739e-05 7.543363e-05 5.0002196e-05 2.7154074e-05

exp_avg f4 [2]
00000000: 92e8 52bc d8f1 baba
-0.012872832 -0.0014262749

exp_avg_sq f4 [2]
00000000: 3606 2d39 dea0 e037
0.0001650088 2.677779e-05

exp_avg f4 [1, 2]
00000000: 0bb4 d0bc 7859 553c
-0.025476476 0.013021819

exp_avg_sq f4 [1, 2]
00000000: 38f6 2e3a 7896 9d39
0.00066742627 0.00030057481
