chapter03(DS_book)/multi_layer_perceptron/multi_layer_perceptron_checkpoint-7.pt (torch, 6086 bytes, 9 tensors)

layer1.0.weight f4 [2, 2]
00000000: 53bf 98c0 dcae 99c0 7f3e e7c0 2cde f0c0
-4.773355 -4.802595 -7.226379 -7.5271206

layer1.0.bias f4 [2]
00000000: 3d87 dc40 9331 3c40
6.8915086 2.9405258

layer2.0.weight f4 [1, 2]
00000000: 0184 c540 d8ab f3c0
6.1723638 -7.614727

exp_avg f4 [2, 2]
00000000: 67e7 1c3b 26f7 0a3b 120f ac3a cec5 813a
0.0023941637 0.002120444 0.001312705 0.0009900869

exp_avg_sq f4 [2, 2]
00000000: 567e 8b38 31d4 8538 4b99 1f38 fc4e ad37
6.6515684e-05 6.381458e-05 3.805132e-05 2.0659987e-05

exp_avg f4 [2]
00000000: a06d b3bb 0377 cfb9
-0.005475715 -0.00039570787

exp_avg_sq f4 [2]
00000000: 6e6b 1839 8f2c ab37
0.0001453587 2.0405538e-05

exp_avg f4 [1, 2]
00000000: c3da 63bc 3205 dc3b
-0.013907137 0.0067144865

exp_avg_sq f4 [1, 2]
00000000: 4cbe 193a ad55 8139
0.0005864843 0.0002466863
